MLTool/Insights.pth (torch, 743838 bytes, 26 tensors)

fc1.weight f4 [512, 13]
0.2272384 -0.04054063 0.23067318 -0.1811501 0.26632437 0.15111962 0.16120419 -0.09690084
-0.23485193 0.09826855 0.109962486 -0.029025469 0.25095025 0.12349403 0.19862902 0.22980021
0.02315882 0.2640263 0.18600638 -0.0563861 -0.1854783 -0.1617007 -0.054432992 -0.08377796
0.10496833 0.27384982 -0.031626076 -0.073735364 -0.22394158 -0.22363459 0.017916692 0.09532312
-0.25326443 0.14695548 0.14113 0.24299288 -0.19215576 -0.07670357 0.19966388 -0.15931654
-0.104886 -0.14261727 0.01730297 -0.066106975 0.2565099 0.066208325 0.21528585 -0.0046245134
0.17536224 0.24630366 0.032161444 0.11260483 0.17002667 0.019400608 0.1441449 0.01903475
0.1290891 -0.087189294 -0.20136935 -0.11259959 -0.21506527 0.1040349 0.09144086 0.08485855
0.23418833 0.059338953 -0.032362085 0.023089005 0.19618371 0.09311546 -0.23036905 -0.16371882
0.11622327 0.17224097 0.08443857 -0.19502029 0.22431079 -0.25665644 -0.2050562 -0.2492258
-0.07979466 0.10765205 -0.14530382 -0.032406002 0.20690303 -0.26557842 -0.23630287 0.26749516
-0.05451978 -0.050773982 -0.20973127 0.053559095 0.020155432 -0.13393939 0.11385165 0.20172806
0.007636303 0.2556119 0.2312864 0.20145284 -0.15222423 0.040317364 -0.14442323 -0.25651783
0.07128779 -0.16318928 0.07995762 -0.09684537 0.160292 0.019040259 0.10015174 0.2681431
-0.058091864 -0.23841968 -0.0059198514 0.004367878 -0.035543352 0.16816926 0.04558172 -0.052060355
-0.21093296 -0.2089184 -0.18205766 0.024870535 0.037392844 -0.19118482 -0.097256176 0.1759536
-0.058770657 0.20223053 -0.22330625 0.10976151 0.046540424 -0.048404895 0.26737607 0.027480366
-0.04630066 0.012526047 -0.044661697 0.09372914 -0.07280951 -0.13394563 0.20544623 0.13001704
-0.03769401 0.14991616 0.035445817 0.26568294 -0.23609513 0.05517596 -0.01124826 -0.06772418
-0.24259442 -0.17474751 -0.25963673 -0.15378316 -0.1650104 -0.031856716 0.18848471 -0.022524258
-0.21970557 -0.07878628 -0.07187951 -0.11469745 0.15840748 0.13371871 0.21239406 -0.21311864
0.08982378 0.07582864 0.20220818 0.053803135 -0.2634583 -0.24995497 -0.1850273 -0.10344908
-0.2172294 -0.043666303 -0.19604601 -0.16506939 -0.016771609 0.00856823 0.2691867 -0.14945166
0.07577592 0.11004984 -0.10533032 0.11328306 0.095325895 0.030116944 -0.27402398 0.07049168
0.26947665 -0.035949074 0.027556766 -0.22634535 0.20933734 -0.11081631 -0.08821347 -0.057946265
0.20501356 0.079234466 0.049894907 0.24550232 0.042535324 -0.15954792 -0.20093425 -0.22759137
0.17551582 -0.11837541 -0.10013456 0.0154040465 0.1984656 -0.25972843 -0.08108451 -0.27196744
0.05519003 -0.095154114 0.15303586 0.20374142 -0.10259315 0.21116307 0.26526117 0.12021056
-0.0252141 -0.09946331 -0.054730654 -0.276017 -0.120674394 -0.036191143 0.036183257 -0.12830423
-0.12985711 0.021020208 -0.24603735 -0.18951818 0.0935133 0.059651654 0.16532673 0.027431676
0.1561896 -0.24676798 -0.0827075 -0.23787929 0.11406915 -0.15415914 0.23992735 0.17433105
0.15062349 0.20564248 0.029932074 -0.20372877 0.05166261 0.0008302505 -0.24311343 0.060111035
00000000: 2fb1 683e ef0d 26bd 9735 6c3e 697f 39be
00000010: ab5b 883e 1abf 1a3e b612 253e f373 c6bd
00000020: 067d 70be 0641 c93d 0334 e13d d2c6 edbc
00000030: 8d7c 803e 70ea fc3d 6865 4b3e bf50 6b3e
00000040: 91b7 bd3c 752e 873e 7578 3e3e 1cf5 66bd
00000050: 06ee 3dbe de94 25be 21f5 5ebd c793 abbd
00000060: a3f9 d63d 0b36 8c3e 588a 01bd 9102 97bd
00000070: f150 65be 7700 65be 07c6 923c c538 c33d
00000080: e0ab 81be 7f7b 163e 6284 103e 20d3 783e
00000090: 7bc4 44be c316 9dbd b074 4c3e e023 23be
000000a0: 79ce d6bd 430a 12be f5be 8d3c 1863 87bd
000000b0: 4455 833e 3b98 873d e573 5c3e 3b89 97bb
000000c0: 2992 333e 0737 7c3e b8bb 033d 5c9d e63d
000000d0: 791b 2e3e 06ee 9e3c b89a 133e c4ee 9b3c
000000e0: ef2f 043e 4d90 b2bd c433 4ebe 9d9a e6bd
000000f0: 123a 5cbe 4010 d53d 5845 bb3d 52ca ad3d
00000100: 11cf 6f3e 670d 733d 1b8e 04bd 2725 bd3c
00000110: 62e4 483e 51b3 be3d dde5 6bbe e8a5 27be
00000120: 7706 ee3d f05f 303e 21ee ac3d 66b3 47be
00000130: bab1 653e 7968 83be 41fa 51be 0c35 7fbe
00000140: 626b a3bd ae78 dc3d 86ca 14be 28bc 04bd
00000150: 63de 533e e5f9 87be 61f9 71be 20f5 883e
00000160: 2250 5fbd 61f8 4fbd cbc3 56be c860 5b3d
00000170: 011d a53c 6827 09be 0e2b e93d cd91 4e3e
00000180: f439 fa3b 90df 823e 58d6 6c3e a749 4e3e
00000190: abe0 1bbe d223 253d afe3 13be 4e56 83be
000001a0: 55ff 913d 171b 27be d2c0 a33d de56 c6bd
000001b0: 9623 243e 51fa 9b3c 5b1c cd3d 0d4a 893e
000001c0: bcf1 6dbd 4a24 74be 50fb c1bb 6b20 8f3b
000001d0: e895 11bd 9034 2c3e e6b3 3a3d 3d3d 55bd
000001e0: cffe 57be b4ee 55be 536d 3abe 4bbd cb3c
000001f0: 3d29 193d f4c5 43be 3f2e c7bd 2e2d 343e
00000200: 80b9 70bd 8515 4f3e 65aa 64be a4ca e03d
00000210: 2ca1 3e3d 3644 46bd 84e5 883e 811e e13c
00000220: c3a5 3dbd 0d3a 4d3c 2fef 36bd 10f5 bf3d
00000230: 271d 95bd 0b29 09be 7f60 523e 3023 053e
00000240: 0965 1abd 9f83 193e a22f 113d 9807 883e
00000250: ecc2 71be 3000 623d 9f4a 38bc fab2 8abd
00000260: ac6a 78be 03f1 32be 1bef 84be 5579 1dbe
00000270: 7cf8 28be 307c 02bd 2302 413e cb84 b8bc
00000280: 7ffa 60be b35a a1bd 9135 93bd 7fe6 eabd
00000290: 9235 223e 8fed 083e d47d 593e c63b 5abe
000002a0: 88f5 b73d 0c4c 9b3d a90f 4f3e ad60 5c3d
000002b0: 02e4 86be 32f4 7fbe cc77 3dbe 1cdd d3bd
000002c0: 6271 5ebe 70db 32bd 49c0 48be f307 29be
000002d0: 9d64 89bc c361 0c3c d7d2 893e db09 19be
000002e0: 6830 9b3d cf61 e13d 6cb7 d7bd f300 e83d
000002f0: 393a c33d cfb7 f63c df4c 8cbe f15d 903d
00000300: d8f8 893e 563f 13bd babe e13c 13c7 67be
00000310: 875c 563e a9f3 e2bd 44a9 b4bd 1059 6dbd
00000320: 13ef 513e ae45 a23d 9a5e 4c3d f664 7b3e
00000330: 8539 2e3d 8860 23be b5c1 4dbe b60d 69be
00000340: 6bba 333e cf6e f2bd 5913 cdbd 4161 7c3c
00000350: 913a 4b3e 20fb 84be a30f a6bd 513f 8bbe
00000360: f10e 623d 29e0 c2bd 6fb5 1c3e 97a1 503e
00000370: 5c1c d2bd 223b 583e 50d0 873e f430 f63d
00000380: cd8d cebc 6bb3 cbbd 402d 60bd 1a52 8dbe
00000390: 2324 f7bd 2a3d 14bd e534 143d 2f62 03be
000003a0: 43f9 04be 9232 ac3c 37f1 7bbe 0e11 42be
000003b0: e783 bf3d 4b55 743d 694b 293e 65b8 e03c
000003c0: 2bf0 1f3e bfb0 7cbe 8d62 a9bd a196 73be
000003d0: 169d e93d e5db 1dbe 84af 753e d783 323e
000003e0: 0b3d 1a3e f193 523e 1c34 f53c 469e 50be
000003f0: 2c9c 533d 2ba5 593a baf2 78be fd36 763d

fc1.bias f4 [512]
-0.0037037134 0.018972844 -0.245456 -0.16649458 0.19234413 0.027812362 0.02211091 -0.08592433
-0.040878728 0.021754503 0.03923437 -0.22913356 -0.25233454 -0.19800651 0.25937763 -0.030319422
-0.1008926 0.117699236 -0.2345436 -0.13007183 -0.01812327 -0.18802449 -0.26878738 0.09267822
-0.24777256 -0.13401099 0.0032044947 -0.1828841 -0.19690397 -0.15871409 0.17614561 0.1653058
-0.11436698 -0.0003138781 -0.18343082 -0.25382552 0.08846843 0.1977992 0.27111396 -0.17562634
-0.23308736 0.064623386 0.18186927 -0.1678723 0.1585254 0.10757437 0.1332174 -0.018049598
-0.037270203 0.24985752 -0.10674037 0.048815638 0.23174885 -0.27346164 0.072003365 -0.099694476
0.09965861 0.0055751204 -0.036622077 -0.1772753 0.033751726 0.0040071607 0.01623395 -0.1357009
-0.2492421 0.058570772 0.051331013 -0.035736218 -0.19118567 0.10135144 0.2540157 -0.19149837
0.08534166 -0.20848733 0.1714547 0.25739577 -0.19208293 0.21385595 -0.19571146 0.10084447
-0.01882112 0.13944784 0.066693574 0.039283603 0.16170174 0.1315589 0.011637509 0.086304426
-0.12447934 0.21746573 0.085709214 0.22469148 -0.17311046 -0.2601452 0.24265167 -0.12408626
-0.19169487 -0.05154589 -0.038342327 -0.2696495 0.06838718 -0.17283809 -0.2520845 0.22893569
-0.18316536 -0.20224851 0.07353896 0.22495952 0.15570235 -0.18290964 -0.13664854 -0.16466478
-0.22472419 -0.04905477 -0.22456075 0.14535958 0.19991845 0.10726723 -0.2333931 -0.14350462
-0.11782594 0.15124097 -0.26943734 -0.06877294 0.191075 0.1828486 -0.07040009 -0.0051576495
-0.15720329 0.15988475 0.022752702 -0.11594367 -0.12561092 -0.12603782 0.13597018 -0.04730721
0.035244346 -0.15207338 -0.14856496 -0.008615524 -0.08789873 -0.13905028 -0.08219056 0.17935368
-0.21206632 -0.03198351 0.059048176 0.07434693 0.09202033 0.24227276 0.22433606 -0.23847833
-0.19848645 -0.2432063 0.16200429 0.035620302 -0.016344786 -0.14064318 0.08678666 0.1470463
0.059654444 0.1098353 0.15835541 -0.024713218 -0.14834616 0.13079092 0.13667038 0.0776214
-0.24326026 0.21706262 0.24042478 -0.26241064 -0.073102206 0.24062726 -0.012142509 0.21434385
-0.26022625 0.25034252 0.080334514 0.18643945 0.20445195 0.27520892 0.18891588 -0.09198409
-0.018247515 0.20403564 0.08514294 -0.07961483 -0.24854326 0.14936066 0.22522798 0.22014883
0.20987946 0.22657278 0.06480235 -0.1351911 0.14071283 0.12234223 0.066714436 0.0341914
-0.1540132 -0.1489836 0.14523366 -0.073363036 -0.11754742 -0.21972474 0.12648365 0.2717997
-0.1554061 -0.12390141 0.19744349 -0.09675941 -0.034452334 0.17997375 0.025098383 -0.15182015
-9.369849e-05 -0.24526542 0.26589552 0.03608486 0.14327481 0.22717157 0.21334088 -0.10289313
0.16519845 -0.2529161 -0.1662955 -0.16260415 -0.14640458 -0.26419753 -0.23602049 -0.23447871
-0.006594032 -0.23264581 -0.037463725 -0.17535128 -0.1913462 -0.154825 0.05201444 -0.20675337
0.13480103 0.13000098 0.09730229 -0.045650378 -0.16222665 0.13547695 -0.2404472 -0.14159895
0.060493886 -0.15007392 -0.2452364 0.19316635 0.056574762 0.1956563 0.09543279 -0.17742103
00000000: 00ba 72bb f06c 9b3c d158 7bbe 8e7d 2abe
00000010: dcf5 443e c0d6 e33c f021 b53c 18f9 afbd
00000020: 7470 27bd 8036 b23c 38b4 203d fda1 6abe
00000030: fe31 81be 38c2 4abe 25cd 843e 7060 f8bc
00000040: c8a0 cebd 4c0c f13d 332c 70be 8d31 05be
00000050: 4077 94bc 7e89 40be 809e 89be 14ce bd3d
00000060: 17b8 7dbe 2d3a 09be 8002 523b f845 3bbe
00000070: 32a1 49be f285 22be 845f 343e ec45 293e
00000080: 3c39 eabd 0190 a4b9 4ad5 3bbe 6bf5 81be
00000090: f02e b53d e08b 4a3e 73cf 8a3e 64d7 33be
000000a0: 74ae 6ebe 4459 843d f03b 3a3e b7e6 2bbe
000000b0: 7c54 223e f44f dc3d 246a 083e c0dc 93bc
000000c0: a4a8 18bd a6da 7f3e b29a dabd e8f2 473d
000000d0: 924f 6d3e 2a03 8cbe 8076 933d 9e2c ccbd
000000e0: d019 cc3d 80af b63b 0801 16bd a887 35be
000000f0: 403f 0a3d 804e 833b 10fd 843c 2df5 0abe
00000100: 5239 7fbe e8e7 6f3d 7840 523d 2460 12bd
00000110: 2dc6 43be 5891 cf3d 590e 823e 2618 44be
00000120: 9cc7 ae3d b47d 55be d291 2f3e 61c9 833e
00000130: 63b1 44be 0efd 5a3e 9668 48be 8c87 ce3d
00000140: c02e 9abc 6acb 0e3e a496 883d d8e7 203d
00000150: 2495 253e 60b7 063e 40ab 3e3c 60c0 b03d
00000160: 06ef febd 56af 5e3e 5088 af3d 8615 663e
00000170: de43 31be c031 85be ae79 783e f020 febd
00000180: a94b 44be c821 53bd d80c 1dbd 800f 8abe
00000190: 940e 8c3d 78fc 30be 3811 81be 1e6e 6a3e
000001a0: b38f 3bbe 3c1a 4fbe 989b 963d ca5b 663e
000001b0: 7070 1f3e aa4c 3bbe 98ed 0bbe e29d 28be
000001c0: 191e 66be a8ed 48bd 41f3 65be 24d9 143e
000001d0: 6cb7 4c3e ecae db3d 9afe 6ebe e0f2 12be
000001e0: ba4e f1bd eade 1a3e b1f3 89be d4d8 8cbd
000001f0: 2aa9 433e aa3c 3b3e ec2d 90bd 8001 a9bb
00000200: e6f9 20be d4b8 233e e063 ba3c e073 edbd
00000210: 26a0 00be 0f10 01be c43b 0b3e 34c5 41bd
00000220: 605c 103d 20b9 1bbe 6a21 18be 2028 0dbc
00000230: 4004 b4bd 3263 0ebe 8653 a8bd 7ea8 373e
00000240: ea27 59be 2401 03bd 80dc 713d 3443 983d
00000250: 2875 bc3d 5a16 783e 5ab8 653e aa33 74be
00000260: 0840 4bbe 130b 79be 74e4 253e 98e6 113d
00000270: 80e5 85bc c404 10be 34bd b13d 4e93 163e
00000280: 3858 743d 54f1 e03d ec27 223e 6073 cabc
00000290: 0ee8 17be 0eee 053e 52f3 0b3e f8f7 9e3d
000002a0: 3819 79be aa45 5e3e ea31 763e b05a 86be
000002b0: 9cb6 95bd fe66 763e 60f1 46bc f47c 5b3e
000002c0: 603c 85be e52c 803e 6c86 a43d fce9 3e3e
000002d0: da5b 513e 2fe8 8c3e 2a73 413e 2862 bcbd
000002e0: d07b 95bc b8ee 503e 6c5f ae3d 1a0d a3bd
000002f0: 2082 7ebe 00f2 183e 2aa2 663e b26e 613e
00000300: a4ea 563e b202 683e 18b7 843d 896f 0abe
00000310: 0617 103e 908e fa3d 94a1 883d 480c 0c3d
00000320: a3b5 1dbe 288f 18be 22b8 143e 5c3f 96bd
00000330: b4bc f0bd 86ff 60be ee84 013e 5529 8b3e
00000340: c722 1fbe 06c0 fdbd a02e 4a3e cc29 c6bd
00000350: e41d 0dbd 0a4b 383e 209b cd3c be76 1bbe
00000360: fe7f c4b8 dc26 7bbe 7523 883e b8cd 133d
00000370: a2b6 123e aa9f 683e 0876 5a3e a2b9 d2bd
00000380: c829 293e 387e 81be 5e49 2abe b481 26be
00000390: 15eb 15be e644 87be 5baf 71be 301b 70be
000003a0: c012 d8bb b43a 6ebe 9073 19bd 498f 33be
000003b0: 42f0 43be 728a 1ebe 180d 553d 28b7 53be
000003c0: 4809 0a3e fa1e 053e 6c46 c73d e4fb 3abd
000003d0: be1e 26be 78ba 0a3e ca37 76be 51ff 10be
000003e0: 70c8 773d faac 19be 401f 7bbe 66cd 453e
000003f0: f0ba 673d 205a 483e 4472 c33d dcad 35be

bn1.weight f4 [512]
0.99038845 1.0088445 1.0033922 0.9838703 1.0000919 1.0108132 1.0077811 0.993679
1.004959 1.0018225 1.0124305 1.0125264 0.9980558 1.0001222 1.004569 0.9956226
1.002784 0.98804325 0.99689823 1.0029573 0.9909464 0.99050283 0.98918456 1.0107015
0.9953184 0.99122256 1.0074476 1.0043408 0.99545556 0.9950554 1.0068611 1.0043474
1.0001814 0.99924326 1.0049227 1.0089176 1.0002857 1.0041813 0.985307 1.0035257
0.9898271 1.0015112 0.99476904 1.006403 0.9881955 1.0025331 1.0047524 0.99936116
1.0033368 1.00181 1.0041684 1.007882 1.0081631 1.0108515 1.0141177 0.9908263
0.9890103 0.99029183 0.9938714 1.0036328 0.9914426 0.99702215 0.9936507 0.9978837
0.9942771 0.9999399 1.0064232 1.005733 1.0078571 0.99851054 1.0017173 0.9907718
0.99101865 1.0067642 1.011113 0.9911624 0.99942726 1.0142686 1.0015192 0.9933645
0.9933011 0.9962977 1.0000458 0.99921274 1.008387 0.9941648 1.0037642 0.99519837
1.0017543 1.0023804 1.0150596 1.0098681 1.0117689 1.0001128 1.0032701 1.0099416
0.9864827 1.009982 0.9912166 0.99172866 1.0021708 0.9911266 1.0033004 1.008055
0.9926513 0.9994298 1.008372 0.9958073 0.99035853 0.99150777 1.0106082 0.99927044
0.9931187 1.0118008 0.9952719 1.0047458 0.9985834 1.0077164 0.9915157 1.0049983
1.0122648 1.0076053 0.9953517 0.99151224 1.0065601 0.9997516 1.0006157 1.0076182
0.98968756 1.0113735 0.9933671 1.0125916 0.99776244 1.0030525 0.9939756 1.007611
0.99776465 1.0111707 0.9881421 1.0064738 1.0018275 0.99620974 0.98946315 0.99802136
1.00903 0.9959112 0.9935252 0.9925466 1.0030887 1.0000988 1.0081521 0.9977493
1.006928 0.99403155 1.0094434 0.98744607 1.0082166 1.0006297 1.0086954 1.0000191
1.0063938 0.9950509 1.0162894 1.0000331 1.008032 1.0090129 1.0123647 0.9966818
1.0064175 1.0027707 1.007768 0.9996517 0.99041075 1.0069771 0.9976486 1.0109571
0.9993793 0.9927563 0.9951821 0.9922614 1.000453 1.0086675 1.0044423 1.0157077
1.0011431 0.99744314 1.0037743 1.0036952 1.0048343 1.0015079 1.0001321 0.9933735
1.0083269 0.98993754 0.99013835 1.0050585 1.0007662 0.99625957 0.98533255 0.9938379
0.9927126 1.0121416 1.015058 1.0128584 1.0050529 0.98950887 0.9936243 1.005363
1.0015618 0.9928845 0.98637325 1.0027999 0.9959277 1.0080506 0.9914801 0.99041057
0.99747396 1.0098598 1.0037522 1.0131503 1.0049996 1.007147 0.98966926 1.0102358
1.0036365 0.99758506 1.01034 0.9986046 0.995755 1.0015631 0.99541676 0.99093825
1.0078924 1.0110519 1.0042057 0.9985518 0.98950875 1.0068002 0.9842313 1.0096238
1.0017685 0.99720925 0.9971797 0.99483144 0.9900419 1.0042562 1.0014325 1.0038717
0.9962716 1.0013987 1.0017233 0.9927186 0.9913546 1.0139048 1.0004154 1.0048698
00000000: 198a 7d3f d121 813f 286f 803f edde 7b3f
00000010: 0303 803f 5462 813f f9fe 803f bf61 7e3f
00000020: 7fa2 803f b83b 803f 5397 813f 779a 813f
00000030: 9680 7f3f 0104 803f b895 803f 1fe1 7e3f
00000040: 3a5b 803f 67f0 7c3f b934 7f3f e860 803f
00000050: aaae 7d3f 9891 7d3f 333b 7d3f ab5e 813f
00000060: 30cd 7e3f c3c0 7d3f 0bf4 803f 3d8e 803f
00000070: 2dd6 7e3f f3bb 7e3f d3e0 803f 758e 803f
00000080: f205 803f 68ce 7f3f 4fa1 803f 3624 813f
00000090: 5d09 803f 0389 803f 143d 7c3f 8873 803f
000000a0: 4f65 7d3f 8531 803f 2fa9 7e3f d0d1 803f
000000b0: 61fa 7c3f 0153 803f ba9b 803f 22d6 7f3f
000000c0: 576d 803f 4f3b 803f 9788 803f 4702 813f
000000d0: 7d0b 813f 9563 813f 9cce 813f cba6 7d3f
000000e0: c72f 7d3f c483 7d3f 5b6e 7e3f 0a77 803f
000000f0: 2fcf 7d3f d83c 7f3f e45f 7e3f 4e75 7f3f
00000100: f288 7e3f 10fc 7f3f 7ad2 803f dcbb 803f
00000110: 7601 813f 639e 7f3f 4638 803f 38a3 7d3f
00000120: 66b3 7d3f a6dd 803f 276c 813f d2bc 7d3f
00000130: 77da 7f3f 8ed3 813f c831 803f 234d 7e3f
00000140: fb48 7e3f 5e0d 7f3f 8001 803f 68cc 7f3f
00000150: d312 813f 9681 7e3f 587b 803f 52c5 7e3f
00000160: 7c39 803f 004e 803f 79ed 813f 5c43 813f
00000170: a581 813f b203 803f 286b 803f c445 813f
00000180: 218a 7c3f 1747 813f 5fc0 7d3f eee1 7d3f
00000190: 2247 803f 79ba 7d3f 266c 803f f207 813f
000001a0: 651e 7e3f a2da 7f3f 5512 813f 3aed 7e3f
000001b0: 2388 7d3f 74d3 7d3f 9c5b 813f 30d0 7f3f
000001c0: 073d 7e3f b082 813f 24ca 7e3f 839b 803f
000001d0: 29a3 7f3f dafc 803f f9d3 7d3f c9a3 803f
000001e0: e591 813f 36f9 803f 5ecf 7e3f bfd3 7d3f
000001f0: f6d6 803f b9ef 7f3f 2d14 803f a2f9 803f
00000200: 2a5c 7d3f b074 813f 4e4d 7e3f 9a9c 813f
00000210: 5c6d 7f3f 0664 803f 2f75 7e3f 66f9 803f
00000220: 816d 7f3f 0b6e 813f e1f6 7c3f 22d4 803f
00000230: e23b 803f 9a07 7f3f 754d 7d3f 547e 7f3f
00000240: e527 813f 09f4 7e3f ab57 7e3f 8917 7e3f
00000250: 3665 803f 3d03 803f 210b 813f 806c 7f3f
00000260: 04e3 803f da78 7e3f 7135 813f 44c9 7c3f
00000270: 3e0d 813f a214 803f ee1c 813f a000 803f
00000280: 83d1 803f a8bb 7e3f c515 823f 1601 803f
00000290: 3107 813f 5627 813f 2b95 813f 8a26 7f3f
000002a0: 4ad2 803f ca5a 803f 8bfe 803f 2ce9 7f3f
000002b0: 8f8b 7d3f a0e4 803f e665 7f3f 0b67 813f
000002c0: 52d7 7f3f 4725 7e3f 41c4 7e3f d804 7e3f
000002d0: d80e 803f 041c 813f 9191 803f b602 823f
000002e0: 7525 803f 6f58 7f3f ad7b 803f 1679 803f
000002f0: 699e 803f 6931 803f 5404 803f ba4d 7e3f
00000300: db10 813f 8c6c 7d3f b579 7d3f c2a5 803f
00000310: 1b19 803f de0a 7f3f c13e 7c3f 296c 7e3f
00000320: 6a22 7e3f db8d 813f 6ced 813f 58a5 813f
00000330: 93a5 803f 7450 7d3f 2a5e 7e3f bcaf 803f
00000340: 2d33 803f ae2d 7e3f f582 7c3f bf5b 803f
00000350: 1ef5 7e3f cd07 813f a4d1 7d3f 8c8b 7d3f
00000360: 745a 7f3f 1643 813f f47a 803f e9ae 813f
00000370: d4a3 803f 31ea 803f f75a 7d3f 684f 813f
00000380: 2977 803f bc61 7f3f d252 813f 8da4 7f3f
00000390: cde9 7e3f 3833 803f a2d3 7e3f 21ae 7d3f
000003a0: 9e02 813f 266a 813f d089 803f 17a1 7f3f
000003b0: 7250 7d3f d4de 803f 95f6 7b3f 5a3b 813f
000003c0: f339 803f 1b49 7f3f 2b47 7f3f 46ad 7e3f
000003d0: 6373 7d3f 788b 803f f12e 803f de7e 803f
000003e0: a80b 7f3f d52d 803f 7838 803f ce22 7e3f
000003f0: 6ac9 7d3f a2c7 813f 9d0d 803f 939f 803f

bn1.bias f4 [512]
-0.009479496 0.010664281 0.006652256 -0.016558275 0.001259543 0.01088836 0.007731737 -0.0036992687
0.0023398127 0.0028324537 0.012580451 0.0124941375 -0.0019000827 0.00585752 0.0054840385 -0.0044441964
0.0071729603 -0.0107191885 -0.0032166408 0.009692768 -0.009687576 -0.009507816 -0.0063868165 0.0065611713
-0.0065832254 -0.008752646 0.007694369 0.0040692626 4.7496e-05 -0.004969515 0.010091676 0.0054382863
-0.0017342767 0.0034239807 0.0006942668 0.008847547 0.0027651438 0.0038943568 -0.014763584 0.008472233
-0.009018062 0.0014574797 -0.00896464 0.0025458026 -0.012019077 0.003893576 0.004850355 0.00040267437
0.0033577748 0.0035914397 0.0010090497 0.0062653827 0.0082591865 0.012679419 0.014150006 -0.010603267
-0.01111891 -0.009901065 -0.0061148508 -0.0019203532 -0.011546763 -0.0030228868 -0.0066530732 -0.0020181655
-0.0059737507 2.8362643e-05 0.008000887 0.005506499 0.009903909 0.0014186179 0.008564845 -0.006608185
-0.012935527 0.00948756 0.0111248465 -0.008878745 -0.00096029846 0.012447864 0.0015957144 -0.006589653
-0.0066179777 -0.0032035324 0.0019492019 -0.0019003927 0.008401095 -0.0056495424 0.004896298 -0.0033485075
0.0023341253 0.008384275 0.014313013 0.009619347 0.007894383 0.00012335685 0.003114541 0.009937904
-0.011747941 0.010139039 -0.009459138 -0.008212095 0.0111377975 -0.008241946 0.0033000135 0.007855037
-0.007140721 -0.0007412925 0.008631194 -0.0029578286 -0.004918933 -0.0076018525 0.008532952 0.0045728516
-0.0067109508 0.0035042027 -0.004716906 0.0074795135 0.005033571 0.008261964 -0.00854319 0.005002581
0.009493539 0.007543915 -0.0043724314 -0.0004392033 0.0047969036 0.0010637421 0.0019217217 0.0088298125
-0.0103594735 0.0075155827 -0.006742144 0.010029278 -0.005562119 0.0030853117 -0.006132154 0.0076749506
-0.0054725427 0.0115655605 -0.013250678 0.0071529476 0.0017073965 -0.0068772035 -0.010617807 -0.0017832398
0.009064859 -0.004055739 -0.005995972 -0.007504671 0.008451893 0.0035271442 0.008369439 -0.0022264423
0.0069299317 -0.006843876 0.009473053 -0.011714893 0.008260372 0.00528289 0.01063798 0.000105889994
0.006443064 -0.00485904 0.016266517 0.00023170463 0.009986309 0.0110960305 0.012337735 -0.0033030324
0.0069006127 0.0044843946 0.008687628 -0.0006767259 -0.00895913 0.007959523 -0.0023358387 0.009935052
0.010988737 -0.007633448 -0.0005684255 -0.0057552475 0.0015711756 0.008572019 0.0077722906 0.015720904
0.0069364803 0.0014749597 0.004778154 0.0037422334 0.0049286354 0.0018934787 0.003780521 -0.0059315944
0.0103704855 -0.012433133 -0.008500192 0.0035010823 0.0018196821 -0.0040437505 -0.013742429 -0.004363898
-0.0072462833 0.012094326 0.015096157 0.012396688 0.0028314423 -0.010517994 -0.0049107675 0.008523745
-0.0006629224 -0.0072176103 -0.004105417 0.0027605458 -0.0035715848 0.00960482 -0.007897484 -0.006232863
-0.0027288455 0.009552039 0.0016855749 0.013143164 0.005034165 -0.006015768 -0.009242268 0.010714504
0.0037447752 -0.0007858877 0.01040833 -0.0016696297 -0.0028166163 -0.0046948027 -0.0039307685 -0.00898391
0.0020894133 0.010642249 0.0033606768 -0.00094131724 -0.009652065 0.006877288 -0.015800308 0.010045005
0.0013701059 0.007566377 -0.0028734757 -0.002944326 -0.009434978 0.004639308 0.0057653557 0.0045184856
-0.0022512085 0.0024676172 0.0018121572 -0.007260941 -0.006816064 0.013909394 -0.00089290395 0.0050044474
00000000: e34f 1bbc 3db9 2e3c 2bfb d93b 38a5 87bc
00000010: 4017 a53a 1865 323c 835a fd3b 6e6f 72bb
00000020: 8b57 193b b0a0 393b 3c1e 4e3c 36b4 4c3c
00000030: 320c f9ba 70f0 bf3b 73b3 b33b 9fa0 91bb
00000040: 270b eb3b 899f 2fbc 47ce 52bb 6ace 1e3c
00000050: a4b8 1ebc acc6 1bbc 8048 d1bb 18ff d63b
00000060: 19b8 d7bb 4267 0fbc 0c21 fc3b 7357 853b
00000070: 7136 4738 50d7 a2bb 8f57 253c a733 b23b
00000080: ab50 e3ba dd64 603b 75ff 353a 4df5 103c
00000090: 6a37 353b 7738 7f3b f6e2 71bc 1fcf 0a3c
000000a0: 7ec0 13bc e708 bf3a 6de0 12bc 7bd7 263b
000000b0: aaeb 44bc 5e2b 7f3b baef 9e3b 0a1e d339
000000c0: 1d0e 5c3b 5c5e 6b3b 1742 843a d74d cd3b
000000d0: 8a51 073c 56bd 4f3c 6dd5 673c 53b9 2dbc
000000e0: 172c 36bc 1438 22bc 165f c8bb 5cb4 fbba
000000f0: a22e 3dbc a01b 46bb 0602 dabb 3343 04bb
00000100: 74bf c3bb 50ec ed37 2716 033c dd6f b43b
00000110: 0144 223c ebf0 b93a 9053 0c3c 7989 d8bb
00000120: 88ef 53bc b671 1b3c fd44 363c 2878 11bc
00000130: 8abc 7bba 20f2 4b3c 4a27 d13a 04ee d7bb
00000140: 9fdb d8bb 5bf2 51bb 5d7c ff3a 9916 f9ba
00000150: bfa4 093c cc1f b9bb 2071 a03b a272 5bbb
00000160: 20f8 183b 335e 093c 2181 6a3c 779a 1d3c
00000170: 7157 013c 5a59 0139 541d 4c3b 97d2 223c
00000180: 707a 40bc 361e 263c 80fa 1abc 068c 06bc
00000190: 4f7b 363c 3a09 07bc 0a45 583b 6ab2 003c
000001a0: b6fc e9bb 4c53 42ba da69 0d3c 21d8 41bb
000001b0: 002f a1bb f618 f9bb cbcd 0b3c dcd7 953b
000001c0: 89e7 dbbb c4a6 653b 4790 9abb b516 f53b
000001d0: a7f0 a43b 305d 073c bcf8 0bbc b1ec a33b
000001e0: ca8a 1b3c f232 f73b 9d46 8fbb de44 e6b9
000001f0: 582f 9d3b 436d 8b3a 48e2 fb3a ebaa 103c
00000200: c8ba 29bc 4745 f63b 34ed dcbb d751 243c
00000210: 7042 b6bb f132 4a3b 3cf0 c8bb 277e fb3b
00000220: 0453 b3bb 7a7d 3d3c 5f19 59bc 4663 ea3b
00000230: b8ca df3a 2a5a e1bb 4ff6 2dbc 99bb e9ba
00000240: c684 143c 01e6 84bb dc79 c4bb bee9 f5bb
00000250: cf79 0a3c a927 673b f91f 093c 81e9 11bb
00000260: 7b14 e33b 9842 e0bb dd34 1b3c d3ef 3fbc
00000270: 8356 073c 181c ad3b ec4a 2e3c 4211 de38
00000280: 5720 d33b 9538 9fbb 5c41 853c bdf5 7239
00000290: 9e9d 233c 20cc 353c 3624 4a3c b077 58bb
000002a0: 891e e23b d4f1 923b 8e56 0e3c 4e66 31ba
000002b0: 51c9 12bc a968 023c df14 19bb a1c6 223c
000002c0: 1b0a 343c 0122 fabb 6402 15ba 8496 bcbb
000002d0: e8ef cd3a a771 0c3c b3ae fe3b 20c9 803c
000002e0: 6a4b e33b 6f53 c13a 1092 9c3b 4240 753b
000002f0: 6480 a13b 9a2e f83a 9ec2 773b d25d c2bb
00000300: f8e8 293c 57b4 4bbc 6444 0bbc 6a72 653b
00000310: 6682 ee3a 7081 84bb ed27 61bc 08ff 8ebb
00000320: 3b72 edbb 4827 463c df55 773c 7a1b 4b3c
00000330: b88f 393b aa53 2cbc 81ea a0bb 2ea7 0b3c
00000340: f8c7 2dba b481 ecbb bc86 86bb 46ea 343b
00000350: 4011 6abb 895d 1d3c 7364 01bc 0b3d ccbb
00000360: 6ed6 32bb 2880 1c3c 82ee dc3a 6d56 573c
00000370: a3f5 a43b eb1f c5bb e26c 17bc e38b 2f3c
00000380: e76a 753b 0804 4eba b387 2a3c 7ad7 daba
00000390: fb96 38bb dcd6 99bb adcd 80bb 4031 13bc
000003a0: 8aee 083b d45c 2e3c cd3e 5c3b bbc2 76ba
000003b0: b223 1ebc e05a e13b a66f 81bc ce93 243c
000003c0: 2095 b33a 5fef f73b ec50 3cbb 98f5 40bb
000003d0: 2a95 1abc 5605 983b 4feb bc3b ce0f 943b
000003e0: 0389 13bb bfb7 213b e885 ed3a 30ed edbb
000003f0: 4a59 dfbb 3ae4 633c c511 6aba 59fc a33b

bn1.running_mean f4 [512]
2.7730582e+06 2.8608068e+06 -140540.25 -1.1987406e+06 2.757073e+06 558900.56 -4.562888e+06 32935.91
-983746.06 2.2623238e+06 -1.7539692e+06 -806329.2 -1.2247819e+06 1.1747341e+06 2.280208e+06 -1.9630024e+06
1.7536131e+06 3.5477208e+06 -4.27841e+06 4.0807162e+06 1.7614531e+06 -5.439766e+06 -546554.75 -1.9234412e+06
379608.4 -2.0680331e+06 -2.205387e+06 1.4439014e+06 464290.12 -2.3789555e+06 3.3370598e+06 940967.56
154435.16 1.1590731e+06 210101.08 -1.4157455e+06 -1.3125315e+06 490647.06 1.7988166e+06 1.5770666e+06
710842.94 -1.9035234e+06 -188287.52 128896.93 3.0291455e+06 1.3776512e+06 -2.5117912e+06 1.6504322e+06
-5.219565e+06 3.8233792e+06 595919.2 -624328.25 -2.1942852e+06 3.1522952e+06 -2.997677e+06 1.0189958e+06
-428061.38 2.3289138e+06 -3.897502e+06 -57352.594 -7382.146 -1.598984e+06 379375.47 -2.0704624e+06
43328.88 613835.1 2.010713e+06 2.5997118e+06 1.928221e+06 2.309564e+06 2.4854152e+06 3.10287e+06
-1.287183e+06 3.1902342e+06 2.5825595e+06 -1.2435938e+06 1.5987452e+06 1.3070412e+06 -2.8037902e+06 -1.2554799e+06
-2.6280778e+06 -301126.7 3.7816768e+06 -622137.94 -1.569378e+06 2.3398042e+06 1.8118211e+06 3.8242772e+06
601454.3 4.5991805e+06 -1.3175315e+06 -2.3676872e+06 844960.0 -2.7102638e+06 -2.5946325e+06 -3.8336275e+06
-1.3269051e+06 -2.8929032e+06 860382.75 -3.6679045e+06 420594.84 -697078.7 -995541.1 -1.9152019e+06
-1.1070686e+06 -1.5880404e+06 1.5052688e+06 3.1551175e+06 714743.4 736514.4 -1.7767716e+06 2.1699668e+06
2.4662005e+06 -1.7799326e+06 -2.0302995e+06 1.2295958e+06 696250.7 2.3506758e+06 -260009.47 -3.6975358e+06
-1.2308274e+06 -3.1419488e+06 1.2250039e+06 -543826.6 -1.141031e+06 1.2280668e+06 1.8702494e+06 1.5080462e+06
-2.72977e+06 -1.9680041e+06 -371573.38 -1.0406177e+06 56267.56 -4.0001475e+06 2.6426228e+06 -1.2122728e+06
379071.84 3.1632738e+06 810428.44 1.5773624e+06 -882570.75 -1.993686e+06 -171080.53 -1.0809572e+06
-1.2836795e+06 -882796.5 2.2875758e+06 -372637.94 596379.8 3.2799928e+06 2.3023592e+06 -2.8057992e+06
-1.543389e+06 -1.8342594e+06 -3.345302e+06 58072.0 -2.882776e+06 3.223608e+06 2.7226798e+06 -3.8293298e+06
-2.5954492e+06 -2.774057e+06 -4.385527e+06 -628245.1 3.070818e+06 3.2947915e+06 -2.946912e+06 -2.7725335e+06
3.108851e+06 1.3203588e+06 651747.25 -2.0913922e+06 3.531318e+06 2.1940202e+06 -3.511005e+06 4.4516915e+06
2.285374e+06 -1.2072544e+06 871647.2 3.566527e+06 4.402967e+06 -1.4038969e+06 1.5937575e+06 -800774.56
1.987573e+06 192083.55 3.8974365e+06 -4.551351e+06 -2.9386868e+06 -2.502594e+06 -199865.23 1.8189662e+06
251920.44 -105725.6 3.45744e+06 2.4363085e+06 4.610933e+06 -2.5829942e+06 -294165.5 -230748.53
-5.543369e+06 -2.9670715e+06 -3.1353205e+06 -2.4353838e+06 2.1849985e+06 2.4155825e+06 695526.75 1.8370752e+06
-50217.36 -2.8822215e+06 -521296.2 -4.380928e+06 2.0674499e+06 3.8966062e+06 1.3044766e+06 4.366944e+06
-1.04247706e+06 1.229322e+06 -676916.8 -3.221129e+06 -3.7323762e+06 208116.81 -665686.94 2.9996892e+06
-1.9474842e+06 2.7611128e+06 -790671.1 -2.1428855e+06 2.0198996e+06 41571.832 -1.04361975e+06 -4.373722e+06
584893.4 -1.0384969e+06 -973923.0 3.5132348e+06 1.0959335e+06 3.6004e+06 -3.4849415e+06 2.6959055e+06
-1.5809884e+06 -657090.0 -3.7662255e+06 1.4905852e+06 1.4054896e+06 952419.6 4.700159e+06 -1.8311871e+06
2.4637335e+06 559207.0 -3.161886e+06 -706547.44 -540699.7 -3.795888e+06 -898156.1 1.9055028e+06
00000000: 0941 294a 1b9c 2e4a 103f 09c8 a554 92c9
00000010: 4447 284a 4973 0849 903f 8bca e9a7 0047
00000020: 212c 70c9 cf14 0a4a 8a1b d6c9 93db 44c9
00000030: 6f82 95c9 7166 8f49 402c 0b4a d39f efc9
00000040: 6910 d649 2389 584a 1491 82ca 3111 794a
00000050: 6905 d749 2c02 a6ca ac6f 05c9 8acb eac9
00000060: 0d5b b948 0972 fcc9 2c9b 06ca eb41 b049
00000070: 44b4 e248 2e33 11ca 8fad 4b4a 79ba 6549
00000080: cad0 1648 097d 8d49 452d 4d48 0cd2 acc9
00000090: 9c38 a0c9 e292 ef48 0595 db49 5583 c049
000000a0: af8b 2d49 1b5d e8c9 e1df 37c8 77c0 fb47
000000b0: 66e2 384a 9a2b a849 bd4e 19ca 0278 c949
000000c0: da49 9fca 4d5c 694a f37c 1149 846c 18c9
000000d0: b5ed 05ca 9d66 404a b4f6 36ca 3dc7 7849
000000e0: ac03 d1c8 4725 0e4a 78e2 6dca 9808 60c7
000000f0: 2bb1 e6c5 4030 c3c9 ef3d b948 f3bd fcc9
00000100: e140 2947 b2dc 1549 c872 f549 7fac 1e4a
00000110: e860 eb49 f0f6 0c4a 9db2 174a 5862 3d4a
00000120: 7820 9dc9 69b7 424a 7ea0 1d4a 4ece 97c9
00000130: ca28 c349 0a8d 9f49 3921 2bca bf41 99c9
00000140: b767 20ca d608 93c8 b3d0 664a 9fe3 17c9
00000150: 1093 bfc9 71cf 0e4a 692b dd49 556a 694a
00000160: e5d6 1249 195b 8c4a dcd4 a0c9 1d83 10ca
00000170: 004a 4e49 df6b 25ca 225d 1eca 6efc 69ca
00000180: c9f9 a1c9 9d91 30ca ec0d 5249 02df 5fca
00000190: 5b5e cd48 6b2f 2ac9 520d 73c9 0fca e9c9
000001a0: e523 87c9 43da c1c9 a6bf b749 b692 404a
000001b0: 767f 2e49 26d0 3349 1de4 d8c9 bb71 044a
000001c0: 6286 164a e546 d9c9 dcd6 f7c9 de18 9649
000001d0: abfb 2949 4f79 0f4a 5eea 7dc8 ffad 61ca
000001e0: 5b3f 96c9 f3c4 3fca 5f89 9549 2ac5 04c9
000001f0: 3849 8bc9 16e9 9549 4b4d e449 7216 b849
00000200: a89c 26ca 213c f0c9 ac6e b5c8 9b0e 7ec9
00000210: 8fcb 5b47 4e26 74ca fb4a 214a 86fb 93c9
00000220: fb17 b948 2712 414a c7db 4549 938c c049
00000230: ac78 57c9 b05e f3c9 2212 27c8 eaf3 83c9
00000240: fcb2 9cc9 c886 57c9 5f9f 0b4a bef3 b5c8
00000250: bd99 1149 e331 484a 5d86 0c4a 9d40 2bca
00000260: e866 bcc9 9be8 dfc9 582e 4cca 00d8 6247
00000270: 60f3 2fca e0c0 444a df2d 264a 47b9 69ca
00000280: e569 1eca a450 29ca eed5 85ca 5261 19c9
00000290: 886d 3b4a 1e19 494a 80dd 33ca d638 29ca
000002a0: ccbf 3d4a 362d a149 341e 1f49 024c ffc9
000002b0: d888 574a 91e9 054a 744b 56ca d7da 874a
000002c0: f87c 0b4a b35e 93c9 f3cd 5449 fcae 594a
000002d0: 2e5e 864a c75f abc9 ec8c c249 6980 43c9
000002e0: a89f f249 e394 3b48 72e1 6d4a 6ee5 8aca
000002f0: fb5c 33ca 08bf 18ca 4f2e 43c8 b20a de49
00000300: 1c04 7648 cd7e cec7 8006 534a 52b3 144a
00000310: eab6 8c4a 49a7 1dca b0a2 8fc8 2257 61c8
00000320: 922b a9ca 7e18 35ca 625d 3fca dfa4 14ca
00000330: 9a5c 054a 7a6f 134a 6cce 2949 9a40 e049
00000340: 5c29 44c7 b6ea 2fca 068a fec8 00b2 85ca
00000350: cf5f fc49 79d4 6d4a e53c 9f49 c044 854a
00000360: d182 7ec9 5010 9649 4d43 25c9 249a 44ca
00000370: 61ce 63ca 343d 4b48 6f85 22c9 2516 374a
00000380: e2ba edc9 6386 284a f208 41c9 96ca 02ca
00000390: dd91 f649 d563 2247 3cca 7ec9 b479 85ca
000003a0: d6cb 0e49 0e8a 7dc9 30c6 6dc9 4b6e 564a
000003b0: ecc7 8549 40c0 5b4a 36b4 54ca 868b 244a
000003c0: e3fd c0c9 206c 20c9 46df 65ca caf4 b549
000003d0: 8d91 ab49 3a86 6849 fe6f 8f4a 9988 dfc9
000003e0: d65f 164a 7086 0849 78fc 40ca 377f 2cc9
000003f0: bb01 04c9 c0ae 67ca c246 5bc9 f69a e849

bn1.running_var f4 [512]
7.580934e+12 8.5819397e+12 1.0803911e+11 1.5924988e+12 7.366279e+12 3.0833276e+11 2.1485708e+13 1.7598616e+10
1.3600735e+12 5.111112e+12 3.146892e+12 6.598237e+11 1.4740343e+12 2.092607e+12 5.315395e+12 4.4234247e+12
3.190641e+12 1.3458719e+13 1.8474286e+13 1.6561176e+13 3.6565253e+12 2.9054277e+13 1.1932153e+12 4.4710437e+12
2.3477887e+11 4.552207e+12 5.01018e+12 1.972315e+12 1.2707876e+12 5.568624e+12 1.1611091e+13 1.6708502e+12
5.663072e+10 1.4644523e+12 7.5901154e+11 2.1047968e+12 2.0778967e+12 2.1463433e+11 3.079827e+12 2.934414e+12
1.5541834e+12 3.6361158e+12 9.80155e+11 1.120497e+12 9.669512e+12 2.6432103e+12 6.3664334e+12 2.9202404e+12
2.7417953e+13 1.5607113e+13 5.707273e+11 4.9875635e+11 5.0781576e+12 9.61082e+12 9.284664e+12 1.6343339e+12
1.9923162e+11 5.333633e+12 1.5848414e+13 4.6520664e+11 9.901946e+11 2.5789008e+12 1.5272704e+11 4.897951e+12
3.6784243e+11 4.05577e+11 4.0594175e+12 7.1828646e+12 3.5589807e+12 5.586794e+12 6.581958e+12 9.874837e+12
2.2548418e+12 1.0486459e+13 7.83467e+12 1.5598577e+12 3.3257905e+12 1.8684555e+12 7.8963016e+12 1.6212844e+12
7.085515e+12 8.1081716e+11 1.3961828e+13 4.702255e+11 2.4121442e+12 5.1771e+12 3.0988027e+12 1.4450497e+13
6.873378e+11 2.1487772e+13 1.8580999e+12 6.305519e+12 9.515192e+11 7.3204955e+12 6.438391e+12 1.5178358e+13
2.0990321e+12 8.147453e+12 1.183761e+12 1.3410408e+13 1.8658678e+11 1.3907113e+12 1.1456422e+12 3.766909e+12
1.2383798e+12 2.7179947e+12 2.2663185e+12 9.598822e+12 6.3789525e+11 5.3165998e+11 3.4221872e+12 5.610692e+12
5.955719e+12 4.172009e+12 4.423897e+12 1.6748102e+12 1.1172801e+12 5.2896806e+12 1.5022627e+11 1.4159519e+13
1.9706956e+12 9.727294e+12 1.4015057e+12 8.668755e+11 1.9520477e+12 2.128754e+12 3.335784e+12 2.8089495e+12
7.6236026e+12 4.2574322e+12 2.0614696e+11 1.3174199e+12 3.8737635e+11 1.5883904e+13 8.079741e+12 1.359107e+12
2.2745807e+11 9.901262e+12 1.5364873e+12 2.4454874e+12 8.987298e+11 4.539014e+12 6.675111e+10 1.1027769e+12
1.5760719e+12 7.7590325e+11 5.1040973e+12 2.7094516e+11 1.4005221e+12 1.1613878e+13 5.64594e+12 8.490969e+12
2.3240924e+12 3.9755433e+12 1.0996738e+13 6.2168406e+11 8.402654e+12 1.089699e+13 8.101357e+12 1.4171123e+13
6.8387293e+12 7.7051163e+12 1.8983552e+13 4.1605792e+11 9.41096e+12 1.049941e+13 8.7410444e+12 7.804187e+12
9.361003e+12 1.9827226e+12 4.4329052e+11 4.9381643e+12 1.2314166e+13 4.851688e+12 1.1836377e+13 2.071272e+13
6.0261747e+12 1.8885175e+12 1.3685326e+12 1.2938543e+13 1.9271537e+13 1.9716752e+12 3.0087294e+12 6.445383e+11
3.834148e+12 4.6247484e+11 1.4572264e+13 2.1277815e+13 9.086255e+12 6.0854486e+12 7.9429186e+11 3.4650587e+12
6.3472173e+10 1.2890695e+12 1.233017e+13 6.167443e+12 2.126674e+13 7.1038675e+12 1.1716856e+11 1.4206699e+11
3.0185697e+13 8.943463e+12 1.0185195e+13 6.4594976e+12 4.618228e+12 6.7377404e+12 4.3600606e+11 3.9016674e+12
7.770488e+11 8.545643e+12 7.506701e+11 1.9584055e+13 4.214221e+12 1.5008512e+13 1.6481836e+12 1.9358676e+13
1.1407887e+12 1.7920627e+12 5.2253963e+11 1.0057944e+13 1.37072e+13 4.539396e+11 7.9972984e+11 8.889833e+12
3.8481992e+12 7.651419e+12 6.0437804e+11 4.4256235e+12 4.477939e+12 1.0682832e+12 1.5433999e+12 1.9166468e+13
7.872955e+11 1.7984258e+12 1.5547951e+12 1.189408e+13 1.5564314e+12 1.2575589e+13 1.2536601e+13 7.0506607e+12
3.1156795e+12 1.4672235e+12 1.4195759e+13 2.5250625e+12 3.2004183e+12 1.2390586e+12 2.2169925e+13 3.7899471e+12
5.83363e+12 8.2451694e+11 9.789484e+12 5.338376e+11 8.751451e+11 1.4115999e+13 9.50332e+11 3.5092764e+12
00000000: 5ca2 dc54 6fc4 f954 103d c951 2a64 b953
00000010: 0e63 d654 2194 8f52 4054 9c55 b21e 8350
00000020: 5955 9e53 c0c0 9454 582c 3754 8fa0 1953
00000030: a599 ab53 8c9c f353 c7b2 9a54 15bd 8054
00000040: 41b8 3954 a3d9 4355 0a6b 8655 30ff 7055
00000050: 79d6 5454 cf65 d355 96e8 8a53 df1f 8254
00000060: a5a7 5a52 967c 8454 c0d0 9154 919b e553
00000070: 6cf0 9353 7b11 a254 aff6 2855 3783 c253
00000080: 43f7 5251 147c aa53 9db8 3053 d507 f553
00000090: 26e6 f153 d0e4 4752 0045 3354 2dce 2a54
000000a0: 46ee b453 59a6 5354 ca35 6453 6a71 8253
000000b0: bdb5 0c55 e7da 1954 a049 b954 f9fa 2954
000000c0: eb7d c755 071d 6355 ffe1 0453 6440 e852
000000d0: 39cb 9354 18db 0b55 121c 0755 f242 be53
000000e0: 858c 3952 aa3a 9b54 f19f 6655 f4a0 d852
000000f0: 338c 6653 9e1c 1654 f73c 0e52 948c 8e54
00000100: 3c4a ab52 8cdc bc52 094a 6c54 830c d154
00000110: f228 4f54 dc98 a254 698f bf54 a2b2 0f55
00000120: c33f 0354 1b99 1855 d704 e454 6297 b553
00000130: 2496 4154 5084 d953 08d0 e554 0abe bc53
00000140: 3337 ce54 78c8 3c53 dd2b 4b55 3ff7 da52
00000150: c067 0c54 67ac 9654 c25f 3454 4c48 5255
00000160: 8708 2053 1858 9c55 b14f d853 c783 b754
00000170: f78a 5d53 f10d d554 c061 bb54 cadf 5c55
00000180: 085c f453 411f ed54 d4ce 8953 aa25 4355
00000190: c1c5 2d52 6de6 a153 cc5e 8553 5143 5b54
000001a0: 982a 9053 4735 1e54 c7ea 0354 66ae 0b55
000001b0: 8585 1453 cf92 f752 9032 4754 ea4a a354
000001c0: 9055 ad54 c7d7 7254 9ac0 8054 3cf9 c253
000001d0: 8b11 8253 31f3 9954 bce8 0b52 520c 4e55
000001e0: 4e6b e553 fe8c 0d55 2028 a353 ced5 4953
000001f0: 8e3f e353 d0d1 f753 0e2b 4254 9c80 2354
00000200: 44e0 dd54 afd0 7754 44fd 3f52 2c5e 9953
00000210: dc62 b452 2724 6755 c326 eb54 8c38 9e53
00000220: 3bd6 5352 1315 1055 e4de b253 9a58 0e54
00000230: 7840 5153 4a1a 8454 d2aa 7851 5061 8053
00000240: 9a7a b753 70a7 3453 7d8c 9454 5c56 7c52
00000250: d00a a353 1101 2955 8851 a454 a61e f754
00000260: ad47 0754 3668 6754 0b06 2055 42bf 1053
00000270: a78c f454 7392 1e55 d0c7 eb54 8c37 4e55
00000280: 8108 c754 973f e054 9f1f 8a55 f8bd c152
00000290: 8ff2 0855 5ac9 1855 db65 fe54 b921 e354
000002a0: 7438 0855 bdd1 e653 596c ce52 31b8 8f54
000002b0: d831 3355 e433 8d54 f13d 2c55 73b4 9655
000002c0: 8062 af54 35da db53 7351 9f53 d447 3c55
000002d0: 0938 8c55 8088 e553 9021 2f54 7a11 1653
000002e0: 422d 5f54 4c5b d752 ea0d 5455 05d1 9a55
000002f0: f038 0455 201c b154 7cef 3853 66b1 4954
00000300: c873 6c51 4411 9653 766d 3355 087f b354
00000310: 64bc 9a55 f0bf ce54 533e da51 694f 0452
00000320: 3ea1 db55 ff24 0255 cf36 1455 02ff bb54
00000330: 7b68 8654 1418 c454 f907 cb52 601b 6354
00000340: b8eb 3453 00b6 f854 6dc7 2e53 257e 8e55
00000350: c94c 7554 1067 5a55 b3df bf53 58da 8c55
00000360: 27ce 8453 a19f d053 9453 f352 c35c 1255
00000370: 4d77 4755 d161 d352 9d33 3a53 355d 0155
00000380: a3fe 5f54 84af de54 bdb7 0c53 77cd 8054
00000390: 3f53 8254 a4ba 7853 e7ac b353 5474 8b55
000003a0: 784e 3753 445d d153 8100 b553 e714 2d55
000003b0: 4531 b553 b8ff 3655 7a6e 3655 8433 cd54
000003c0: 3e5b 3554 abce aa53 5393 4e55 5dfa 1254
000003d0: f349 3a54 d33e 9053 b44e a155 9d9a 5c54
000003e0: eec7 a954 0af9 3f53 ab74 0e55 6796 f852
000003f0: b6c2 4b53 326a 4d55 3444 5d53 4b44 4c54

fc2.weight f4 [256, 512]
0.018654265 0.00028924446 -0.014583522 -0.028012315 -0.012035302 -0.0044244705 -0.022203285 -0.018466268
-0.017188523 -0.031592194 0.020955693 -0.031864394 0.014713848 0.008516551 0.018134093 0.0017432107
-0.007567668 -0.03447893 0.048358478 -0.030733556 -0.014827554 0.02948571 -0.033431675 0.021967024
0.011428166 0.035615593 -0.01444615 -0.032481916 0.0038382604 0.007966167 -0.024818392 -0.043122172
-0.01690775 0.023350222 -0.042071883 0.022079678 -0.004160213 -0.008665032 0.021555144 -0.012152437
-0.048571646 0.018611327 0.014724341 -0.036423057 0.009536064 0.02382937 -0.0036781316 0.031039653
-0.020208945 -0.040024303 -0.02856466 0.03671602 0.030494446 0.011210176 0.031902187 0.033379782
0.035674218 -0.0022592675 -0.02341957 -0.04351614 -0.043280832 -0.02289245 -0.023904124 -0.008502456
-0.026265327 -0.034740496 -0.0418113 -0.02352395 -0.04819779 -0.03541051 -0.004599185 -0.03960984
-0.032365385 -0.026702126 0.02143942 -0.0017339925 0.035840366 -0.022810992 -0.011147716 0.011909113
-0.024835324 -0.012389242 -0.033776257 0.005342523 -0.02603038 0.031921398 0.015227504 -0.008492587
-0.03201291 -0.04748267 0.014778596 0.01536557 -0.04328378 -0.006581045 0.020028954 0.007171996
-0.0038479539 0.016488226 -0.01514866 0.020957503 -0.039684236 0.035703726 0.0020671282 0.008044512
-0.037819445 0.01431874 -0.01651618 -0.024306385 0.010915525 0.0073731174 -0.023493115 -0.028827757
0.0063401754 0.02688108 -0.04500734 0.0068541784 -0.031711616 -0.034311816 0.03717296 0.04196807
0.04309374 0.006263349 -0.049653538 0.0140592335 0.034299314 0.01054184 -0.03928748 -0.012974454
0.005267683 0.026276346 -0.033532426 0.031336553 -0.03604865 0.02539413 0.033260938 0.014001529
0.034678265 -0.043824304 -0.015974948 -0.007143353 0.04501575 0.014724406 0.0011760904 0.047393233
-0.015739566 0.012592218 -0.040525418 -0.018806899 0.020549262 -0.028387737 -0.0025502122 0.018570904
0.018852793 -0.0023719012 -0.018313603 -0.048821505 -0.013195333 -0.022223301 0.010684152 -0.035679355
-0.02474321 0.032446448 0.014658239 -0.019009134 0.0028593221 -0.033500154 -0.014797024 0.0430668
-0.027811512 0.004871377 0.024051884 0.011513201 -0.010305919 -0.0034109557 -0.021639109 -0.018068153
-0.012246562 -0.0013802567 0.004715886 -0.025192862 -0.005048016 -0.015254622 0.029334472 0.024575418
-0.054756027 -0.046145562 -0.044700712 0.0386853 0.020041788 0.042888664 0.015731825 0.02688399
0.003378906 -0.0045429957 0.023784902 0.020490961 0.028134571 -0.034036506 -0.018855967 -0.014845695
0.047777887 0.026109237 0.0030410509 0.013131542 0.0022758583 0.031213721 0.02595227 -0.014056811
0.017801555 -0.0053360416 0.03128577 -0.013853264 0.011285704 -0.0113280425 0.026354099 0.03266716
0.031477023 -0.014745848 0.046510253 0.018133149 0.047898583 -0.00064541464 -0.022417914 -0.049914353
-0.03977118 -0.01808834 0.04385587 -0.008999413 -0.018448886 -0.0002822574 0.017748596 0.026625194
-0.037740726 0.03817521 0.047891714 -0.050404165 0.01862098 -0.00899957 0.049683582 -0.0212181
0.009005096 -0.0064621107 0.002545435 -0.018891469 -0.002168968 0.002412704 -0.046834372 -0.035469
3.619918e-06 0.017399134 -0.0037564242 0.022927456 0.03944559 -0.044195317 0.018112458 0.019094111
00000000: d4d0 983c bca5 9739 baef 6ebc 157a e5bc
00000010: b72f 45bc 26fb 90bb aae3 b5bc 9246 97bc
00000020: f2ce 8cbc d166 01bd 46ab ab3c 3d84 02bd
00000030: 5a12 713c 0189 0b3c f38d 943c 727c e43a
00000040: 33fa f7bb c739 0dbd 8a13 463d f0c4 fbbc
00000050: 45ef 72bc 048c f13c a7ef 08bd 30f4 b33c
00000060: 343d 3b3c a8e1 113d 8baf 6cbc c20b 05bd
00000070: 538b 7b3b 8784 023c f14f cbbc e0a0 30bd
00000080: 1f82 8abc f748 bf3c 9153 2cbd 71e0 b43c
00000090: 6552 88bb c7f7 0dbc 6a94 b03c 041b 47bc
000000a0: 10f3 46bd c876 983c 5d3e 713c 5830 15bd
000000b0: 273d 1c3c d035 c33c cf0c 71bb df46 fe3c
000000c0: 3b8d a5bc 86f0 23bd 6f00 eabc 8a63 163d
000000d0: 7dcf f93c e3aa 373c deab 023d 3db9 083d
000000e0: 211f 123d 3810 14bb 66da bfbc fb3d 32bd
000000f0: 3e47 31bd f388 bbbc 95d2 c3bc e34d 0bbc
00000100: 622a d7bc 0d4c 0ebd 5342 2bbd 4cb5 c0bc
00000110: 0c6b 45bd 9c0a 11bd c3b4 96bb ed3d 22bd
00000120: 9191 04bd 6bbe dabc b9a1 af3c 2247 e3ba
00000130: 59cd 123d 1ede babc e9a4 36bc 711e 433c
00000140: 7373 cbbc 3ffc 4abc f958 0abd 5510 af3b
00000150: aa3d d5bc 03c0 023d c87c 793c 7e24 0bbc
00000160: f81f 03bd 307d 42bd ed21 723c dfbf 7b3c
00000170: 554a 31bd cfa5 d7bb c313 a43c 1003 eb3b
00000180: f42d 7cbb 5112 873c 1632 78bc 12af ab3c
00000190: f08b 22bd 123e 123d a878 073b 21cd 033c
000001a0: 90e8 1abd 2699 6a3c f14c 87bc 2f1e c7bc
000001b0: 08d7 323c 319a f13b a274 c0bc 3028 ecbc
000001c0: 3fc1 cf3b b635 dc3c 9e59 38bd 0499 e03b
000001d0: 0ae4 01bd 8c8a 0cbd ac42 183d b6e6 2b3d
000001e0: 1083 303d c83c cd3b 8261 4bbd b358 663c
000001f0: 707d 0c3d afb7 2c3c e9eb 20bd ce92 54bc
00000200: 879c ac3b 7e41 d73c 4c59 09bd c25a 003d
00000210: c0a7 13bd 5a07 d03c 9f3c 083d ab66 653c
00000220: cc0a 0e3d 1d81 33bd e5dd 82bc ca12 eabb
00000230: 6f62 383d a33e 713c 0c27 9a3a 681f 423d
00000240: 43f0 80bc 974f 4e3c fbfd 25bd ed10 9abc
00000250: ed56 a83c 668d e8bc 7621 27bb 0222 983c
00000260: 2c71 9a3c e671 1bbb 6906 96bc 0ff9 47bd
00000270: 3d31 58bc a40d b6bc 950c 2f3c 8424 12bd
00000280: 46b2 cabc 91e6 043d 1c29 703c 0bb9 9bbc
00000290: 7763 3b3b 7537 09bd 386f 72bc d066 303d
000002a0: f8d4 e3bc 12a0 9f3b 7508 c53c dda1 3c3c
000002b0: 28da 28bc 578a 5fbb 8044 b1bc aa03 94bc
000002c0: cea5 48bc bbe9 b4ba b887 9a3b 4361 cebc
000002d0: d469 a5bb 86ee 79bc d94e f03c 6352 c93c
000002e0: db47 60bd 2103 3dbd 1818 37bd 7a74 1e3d
000002f0: ad2e a43c 06ac 2f3d 07e0 803c d03b dc3c
00000300: a370 5d3b 69dd 94bb 8ed8 c23c a9dc a73c
00000310: 797a e63c dd69 0bbd d477 9abc 5c3b 73bc
00000320: bfb2 433d 0ae3 d53c 5e4c 473b ae25 573c
00000330: 9126 153b ebb3 ff3c db99 d43c 8a4e 66bc
00000340: 91d4 913c f6d9 aebb 8225 003d cdf8 62bc
00000350: ace7 383c 4199 39bc 8de4 d73c 00ce 053d
00000360: 0dee 003d 9298 71bc 8981 3e3d f88b 943c
00000370: 4e31 443d 0b31 29ba c6a5 b7bc fe72 4cbd
00000380: 1be7 22bd 002e 94bc 36a2 333d 4672 13bc
00000390: 1e22 97bc f2fb 93b9 8165 913c 141d da3c
000003a0: 0596 1abd 9c5d 1c3d 1a2a 443d 9974 4ebd
000003b0: 078b 983c ef72 13bc 0381 4b3d 95d1 adbc
000003c0: 1c8a 133c 1dc0 d3bb 50d1 263b 48c2 9abc
000003d0: 3f25 0ebb 751e 1e3b 66d5 3fbd f147 11bd
000003e0: b8ed 7236 a188 8e3c 572e 76bb 5cd2 bb3c
000003f0: b391 213d 2606 35bd 9460 943c 416b 9c3c
